{"format": "layers-model", "generatedBy": "keras v2.2.4-tf", "convertedBy": "TensorFlow.js Converter v1.5.2", "modelTopology": {"keras_version": "2.2.4-tf", "backend": "tensorflow", "model_config": {"class_name": "Sequential", "config": {"name": "sequential", "layers": [{"class_name": "Embedding", "config": {"name": "embedding", "trainable": true, "batch_input_shape": [null, null], "dtype": "float32", "input_dim": 129, "output_dim": 32, "embeddings_initializer": {"class_name": "RandomUniform", "config": {"minval": -0.05, "maxval": 0.05, "seed": null}}, "embeddings_regularizer": null, "activity_regularizer": null, "embeddings_constraint": null, "mask_zero": false, "input_length": null}}, {"class_name": "Bidirectional", "config": {"name": "bidirectional", "trainable": true, "dtype": "float32", "layer": {"class_name": "LSTM", "config": {"name": "lstm", "trainable": true, "dtype": "float32", "return_sequences": true, "return_state": false, "go_backwards": false, "stateful": false, "unroll": false, "time_major": false, "units": 128, "activation": "tanh", "recurrent_activation": "sigmoid", "use_bias": false, "kernel_initializer": {"class_name": "GlorotUniform", "config": {"seed": null}}, "recurrent_initializer": {"class_name": "Orthogonal", "config": {"gain": 1.0, "seed": null}}, "bias_initializer": {"class_name": "Zeros", "config": {}}, "unit_forget_bias": true, "kernel_regularizer": null, "recurrent_regularizer": null, "bias_regularizer": null, "activity_regularizer": null, "kernel_constraint": null, "recurrent_constraint": null, "bias_constraint": null, "dropout": 0.0, "recurrent_dropout": 0.0, "implementation": 2}}, "merge_mode": "concat"}}, {"class_name": "Bidirectional", "config": {"name": "bidirectional_1", "trainable": true, "dtype": "float32", "layer": {"class_name": "LSTM", "config": {"name": "lstm_1", "trainable": true, "dtype": "float32", "return_sequences": true, "return_state": false, "go_backwards": false, "stateful": false, "unroll": false, "time_major": false, "units": 64, "activation": "tanh", "recurrent_activation": "sigmoid", "use_bias": false, "kernel_initializer": {"class_name": "GlorotUniform", "config": {"seed": null}}, "recurrent_initializer": {"class_name": "Orthogonal", "config": {"gain": 1.0, "seed": null}}, "bias_initializer": {"class_name": "Zeros", "config": {}}, "unit_forget_bias": true, "kernel_regularizer": null, "recurrent_regularizer": null, "bias_regularizer": null, "activity_regularizer": null, "kernel_constraint": null, "recurrent_constraint": null, "bias_constraint": null, "dropout": 0.0, "recurrent_dropout": 0.0, "implementation": 2}}, "merge_mode": "concat"}}, {"class_name": "Dense", "config": {"name": "dense", "trainable": true, "dtype": "float32", "units": 2, "activation": "linear", "use_bias": true, "kernel_initializer": {"class_name": "GlorotUniform", "config": {"seed": null}}, "bias_initializer": {"class_name": "Zeros", "config": {}}, "kernel_regularizer": null, "bias_regularizer": null, "activity_regularizer": null, "kernel_constraint": null, "bias_constraint": null}}]}}}, "weightsManifest": [{"paths": ["group1-shard1of1.bin"], "weights": [{"name": "bidirectional/forward_lstm/kernel", "shape": [32, 512], "dtype": "float32", "quantization": {"min": -1.5665900735294116, "scale": 0.011868106617647058, "dtype": "uint8"}}, {"name": "bidirectional/forward_lstm/recurrent_kernel", "shape": [128, 512], "dtype": "float32", "quantization": {"min": -1.6353170955882355, "scale": 0.012978707107843138, "dtype": "uint8"}}, {"name": "bidirectional/backward_lstm/kernel", "shape": [32, 512], "dtype": "float32", "quantization": {"min": -1.3129595588235294, "scale": 0.010941329656862744, "dtype": "uint8"}}, {"name": "bidirectional/backward_lstm/recurrent_kernel", "shape": [128, 512], "dtype": "float32", "quantization": {"min": -1.9758655024509806, "scale": 0.01619561887254902, "dtype": "uint8"}}, {"name": "bidirectional_1/forward_lstm_1/kernel", "shape": [256, 256], "dtype": "float32", "quantization": {"min": -2.3828125, "scale": 0.0233609068627451, "dtype": "uint8"}}, {"name": "bidirectional_1/forward_lstm_1/recurrent_kernel", "shape": [64, 256], "dtype": "float32", "quantization": {"min": -1.7794806985294116, "scale": 0.013794424019607843, "dtype": "uint8"}}, {"name": "bidirectional_1/backward_lstm_1/kernel", "shape": [256, 256], "dtype": "float32", "quantization": {"min": -2.3963848039215687, "scale": 0.015870098039215685, "dtype": "uint8"}}, {"name": "bidirectional_1/backward_lstm_1/recurrent_kernel", "shape": [64, 256], "dtype": "float32", "quantization": {"min": -2.500919117647059, "scale": 0.020840992647058822, "dtype": "uint8"}}, {"name": "dense/kernel", "shape": [128, 2], "dtype": "float32", "quantization": {"min": -5.087316176470589, "scale": 0.06204044117647059, "dtype": "uint8"}}, {"name": "dense/bias", "shape": [2], "dtype": "float32", "quantization": {"min": -0.002203817928538603, "scale": 0.0005509544821346508, "dtype": "uint8"}}, {"name": "embedding/embeddings", "shape": [129, 32], "dtype": "float32", "quantization": {"min": -2.340341605392157, "scale": 0.02035079656862745, "dtype": "uint8"}}]}]}