{"format": "layers-model", "generatedBy": "keras v2.2.4-tf", "convertedBy": "TensorFlow.js Converter v1.4.0", "modelTopology": {"keras_version": "2.2.4-tf", "backend": "tensorflow", "model_config": {"class_name": "Sequential", "config": {"name": "sequential", "layers": [{"class_name": "Embedding", "config": {"name": "embedding", "trainable": true, "batch_input_shape": [null, null], "dtype": "float32", "input_dim": 129, "output_dim": 25, "embeddings_initializer": {"class_name": "RandomUniform", "config": {"minval": -0.05, "maxval": 0.05, "seed": null}}, "embeddings_regularizer": null, "activity_regularizer": null, "embeddings_constraint": null, "mask_zero": false, "input_length": null}}, {"class_name": "Bidirectional", "config": {"name": "bidirectional", "trainable": true, "dtype": "float32", "layer": {"class_name": "LSTM", "config": {"name": "lstm", "trainable": true, "dtype": "float32", "return_sequences": true, "return_state": false, "go_backwards": false, "stateful": false, "unroll": false, "time_major": false, "units": 128, "activation": "tanh", "recurrent_activation": "sigmoid", "use_bias": false, "kernel_initializer": {"class_name": "GlorotUniform", "config": {"seed": null}}, "recurrent_initializer": {"class_name": "Orthogonal", "config": {"gain": 1.0, "seed": null}}, "bias_initializer": {"class_name": "Zeros", "config": {}}, "unit_forget_bias": true, "kernel_regularizer": null, "recurrent_regularizer": null, "bias_regularizer": null, "activity_regularizer": null, "kernel_constraint": null, "recurrent_constraint": null, "bias_constraint": null, "dropout": 0.0, "recurrent_dropout": 0.0, "implementation": 2}}, "merge_mode": "concat"}}, {"class_name": "Bidirectional", "config": {"name": "bidirectional_1", "trainable": true, "dtype": "float32", "layer": {"class_name": "LSTM", "config": {"name": "lstm_1", "trainable": true, "dtype": "float32", "return_sequences": true, "return_state": false, "go_backwards": false, "stateful": false, "unroll": false, "time_major": false, "units": 64, "activation": "tanh", "recurrent_activation": "sigmoid", "use_bias": false, "kernel_initializer": {"class_name": "GlorotUniform", "config": {"seed": null}}, "recurrent_initializer": {"class_name": "Orthogonal", "config": {"gain": 1.0, "seed": null}}, "bias_initializer": {"class_name": "Zeros", "config": {}}, "unit_forget_bias": true, "kernel_regularizer": null, "recurrent_regularizer": null, "bias_regularizer": null, "activity_regularizer": null, "kernel_constraint": null, "recurrent_constraint": null, "bias_constraint": null, "dropout": 0.0, "recurrent_dropout": 0.0, "implementation": 2}}, "merge_mode": "concat"}}, {"class_name": "Dense", "config": {"name": "dense", "trainable": true, "dtype": "float32", "units": 2, "activation": "linear", "use_bias": true, "kernel_initializer": {"class_name": "GlorotUniform", "config": {"seed": null}}, "bias_initializer": {"class_name": "Zeros", "config": {}}, "kernel_regularizer": null, "bias_regularizer": null, "activity_regularizer": null, "kernel_constraint": null, "bias_constraint": null}}]}}}, "weightsManifest": [{"paths": ["group1-shard1of1.bin"], "weights": [{"name": "bidirectional/forward_lstm/kernel", "shape": [25, 512], "dtype": "float32", "quantization": {"min": -1.2110294117647058, "scale": 0.009926470588235294, "dtype": "uint8"}}, {"name": "bidirectional/forward_lstm/recurrent_kernel", "shape": [128, 512], "dtype": "float32", "quantization": {"min": -1.3864353553921567, "scale": 0.010424325980392156, "dtype": "uint8"}}, {"name": "bidirectional/backward_lstm/kernel", "shape": [25, 512], "dtype": "float32", "quantization": {"min": -1.1474724264705882, "scale": 0.009329044117647059, "dtype": "uint8"}}, {"name": "bidirectional/backward_lstm/recurrent_kernel", "shape": [128, 512], "dtype": "float32", "quantization": {"min": -1.3644531249999998, "scale": 0.011465992647058823, "dtype": "uint8"}}, {"name": "bidirectional_1/forward_lstm_1/kernel", "shape": [256, 256], "dtype": "float32", "quantization": {"min": -1.7483992034313727, "scale": 0.011975337009803922, "dtype": "uint8"}}, {"name": "bidirectional_1/forward_lstm_1/recurrent_kernel", "shape": [64, 256], "dtype": "float32", "quantization": {"min": -1.6901194852941177, "scale": 0.012247242647058823, "dtype": "uint8"}}, {"name": "bidirectional_1/backward_lstm_1/kernel", "shape": [256, 256], "dtype": "float32", "quantization": {"min": -1.4995098039215686, "scale": 0.011714920343137255, "dtype": "uint8"}}, {"name": "bidirectional_1/backward_lstm_1/recurrent_kernel", "shape": [64, 256], "dtype": "float32", "quantization": {"min": -2.3946844362745097, "scale": 0.018420649509803922, "dtype": "uint8"}}, {"name": "dense/kernel", "shape": [128, 2], "dtype": "float32", "quantization": {"min": -3.4162837009803924, "scale": 0.052558210784313726, "dtype": "uint8"}}, {"name": "dense/bias", "shape": [2], "dtype": "float32", "quantization": {"min": -0.3401637657015931, "scale": 0.0014114679074754902, "dtype": "uint8"}}, {"name": "embedding/embeddings", "shape": [129, 25], "dtype": "float32", "quantization": {"min": -2.29609375, "scale": 0.022510723039215686, "dtype": "uint8"}}]}]}